app/UNet_weights.pth (torch, 78242 bytes, 23 tensors)

cnn.network.0.weight f4 [8, 1, 3, 3]
00000000: acfc 703e aff0 253e 0043 8e3d 6323 633e
00000010: 8d8f 7e3d 9d14 0ebd f3a4 bebe 3187 40be
00000020: 2d41 5dbe b179 403e 97d9 03bd 5ec9 18be
00000030: de37 f53e 36a0 a53e a9f9 a13d 14fa 7a3e
00000040: 945b 0dbe c699 883c cab7 f03d 2437 25be
00000050: 3d2b 1cbe 2779 303e d952 aabe cdb2 86bd
00000060: afc3 583e 0af3 86be 3feb 2cbe 3449 f6bc
00000070: 5c3d b23c ddf1 54bd d238 4fbd 0949 bbbd
00000080: 7bf4 8b3e e7c2 edbd d490 b1bd 34dd 0e3e
00000090: e9bb 243e 0050 80be 7b3a 813e 67a3 8a3c
000000a0: 64ed c4be 0f80 d63d 5996 883e 3949 8c3e
000000b0: d0cf 223e 05de 9b3e af12 9cbe 5ada 323e
000000c0: 8b74 0f3d 94df 46be e04f ccbd 6505 f0bd
000000d0: e6bd a33e 3b5e 883e fcd6 33be ee48 83bd
000000e0: cb36 70bd 19f7 5e3e 385a d73e 9d1d 143e
000000f0: b5e0 8e3e ff53 bdbd 39ad 7e3e bed1 ef3d
00000100: f0d2 123f d803 033e 8b54 063e a3b9 99bc
00000110: bdc2 9f3e 1998 58be 34cc 51bd 1485 1fbd
0.23533887 0.16205095 0.06946373 0.22181468 0.06214862 -0.034687627 -0.3723522 -0.18801571
-0.21606894 0.18796422 -0.03218993 -0.14920565 0.47894186 0.32348794 0.07908947 0.2450946
-0.13804466 0.016674887 0.11753805 -0.16134316 -0.15250869 0.17233716 -0.33266333 -0.06577072
0.21168397 -0.263573 -0.16886614 -0.030064203 0.021757774 -0.05198847 -0.050591297 -0.0914479
0.2733496 -0.1160944 -0.08670202 0.1395157 0.16087307 -0.25061035 0.2523993 0.01692362
-0.38462365 0.10473644 0.26677206 0.27399614 0.15899587 0.30442825 -0.30483004 0.17466107
0.035023253 -0.19421226 -0.099761724 -0.11719779 0.3198082 0.26634392 -0.17562479 -0.064103946
-0.058646005 0.21773948 0.4206102 0.14464422 0.27905813 -0.092445366 0.24870767 0.11709927
0.57353115 0.12794435 0.13118188 -0.018765276 0.3120326 -0.2115177 -0.051220134 -0.038945273

cnn.network.0.bias f4 [8]
00000000: 74e8 a0bd daa4 a83d 8d27 8fbc bd88 b23e
00000010: 2a2d 073f 1056 c43b e588 64be 5f6a a23d
-0.07856837 0.08234568 -0.017474914 0.34869948 0.5280329 0.0059917048 -0.22317846 0.07930445

cnn.network.2.weight f4 [8]
00000000: 9f70 583f 0c5e 933f ce68 583f 109c 7a3f
00000010: 21ac 843f 018d 5b3f 0793 713f 2ed8 883f
0.84546846 1.1513076 0.8453492 0.9789438 1.036503 0.8576203 0.9436497 1.0690973

cnn.network.2.bias f4 [8]
00000000: d01b 76be bd1b a83d 4b45 0bbe da4f 41bd
00000010: 98ee c93d 7fda c6bd 16c5 89be be50 723d
-0.24034047 0.08208416 -0.13600652 -0.047195293 0.09859961 -0.097096436 -0.26908177 0.059159033

cnn.network.2.running_mean f4 [8]
00000000: 1ede bc3c 5277 223f bf48 b4b9 8eb1 b53e
00000010: 4e6e 563f 7e6c 593e 89b2 983e 5eab 183f
0.023055132 0.6346332 -0.00034386475 0.35487026 0.8376206 0.21232793 0.29823712 0.59636486

cnn.network.2.running_var f4 [8]
00000000: d8fb b83b 07c7 8f3d 35d9 5a3a e953 073c
00000010: 615a 153d 69b3 9e3c 0c48 293d ae58 853d
0.0056452565 0.07020383 0.00083484064 0.008259752 0.036463145 0.019372659 0.041328475 0.06511055

cnn.network.3.weight f4 [16, 8, 3, 3]
00000000: 2590 8dbc c5ca 983b 7d01 473c a806 9c3c
00000010: 37ab c6bd 69b4 0fbd 1895 82bd 91ee 5fbc
00000020: b97a e8bd 01d2 b9bc f344 303d 383a b2bb
00000030: 7b68 0ebd a0e7 b139 055e 033e 2de5 143b
00000040: a409 043e 06d0 42bc 83de d5bd 6061 433d
00000050: e4f4 e33c 34bb dbbd 49a5 8ebd aa05 cebb
00000060: 8b6f 73bd c26c 093e 8695 443c 87fb 113e
00000070: 72af eabd 7374 55bd eee7 063e c776 e5bd
00000080: 5674 2dbd 25f4 b5bc 2d4f 123e 1bd5 92bc
00000090: baae be3d 1006 55bd 1871 aebc 9b0c d2bc
000000a0: 0212 2ebe 58a1 a63c cd46 8bb8 55ba 13be
000000b0: 0884 b9bd f3e3 963d c72a 4dbd 182c c33d
000000c0: 5df1 c8bd e5d5 0c3d c397 713d 3c92 743d
000000d0: 481a 6abc bf04 283d 3e79 fa3d ac91 7d3d
000000e0: 6199 143d aff0 383e 553b f3bd 53ec 133e
000000f0: 078d 523d f434 5dbb d736 edbd 60cb 7a3e
00000100: 409c 563e 2531 cd3d 7475 dc3d f56c 173e
00000110: aa6d d83c a25d a43c 5185 ce3d 3259 653d
00000120: 9943 74bd 8655 76bd a75a cbbd cd62 88bd
00000130: 6bca 0cbc 53a7 ff3d 2859 b03c 7c98 203d
00000140: d0de 1bbe 9b76 163e db21 cfbc a7dd bfbd
00000150: c746 1e3d 9126 72bb e515 25bd b33b 3bbd
00000160: 68f2 413d 7397 febc f156 79bd da12 debc
00000170: 4d4c 163d 7f33 74bd 5c8f 893b cc96 0f3d
00000180: 2ea6 5c3d b9ae 1abb ed49 0d3d 7b39 b3bd
00000190: a6ef 96bd 6b1d ac3d b575 573e 628a 02be
000001a0: 0fc6 673c 9af0 0d3d 7e4a fbbd 0f91 d7bb
000001b0: e107 92bd 3b98 03be 31bb 14be f30b 563d
000001c0: a3a5 83be 2703 ebbd aca1 d9bc b981 f4bd
000001d0: bdf2 aebd 4be0 c73d 4358 e1bd d81b 0b3d
000001e0: 4023 98bd 48fc 61be 009a c0bd 5a7f 73bd
000001f0: 5edd 24bd 62c8 20be 6ce7 8b3c 04c3 f6bd
00000200: 3eb2 7bbd 0f8a 0b3e da44 a63c 27fd 103e
00000210: 781b ba3d 57a4 cdbc a03c bd3c 0353 db3c
00000220: 517e 74bd 7b4d bdbd 271a d13d 72d0 663a
00000230: 5dea 62bc 1ab5 c53c 6acc 6bbd ff92 a5bd
00000240: bca0 c5bd 0cd4 c6bd dd5b 4fbd a495 85bd
00000250: ac98 96bc 047c 0bbe 7189 8a3d e051 7cbc
00000260: 53e3 a5bd 6ea7 da3c d091 b4bd c828 d6bd
00000270: 83c3 843d 816a b83d 1456 a0bc 5d9f 833d
00000280: 189b 9b3d 580e 5abc 2b8a eabc 8885 a83d
00000290: 6ee8 01be 88f2 283d 0303 093d c89d b6bd
000002a0: 0cdd b53d 0e17 9e3d 9fc5 d73b af6c 853d
000002b0: 213f 8cbd b825 46bd 5061 14be 1a7b bc3c
000002c0: 885d f83b 1424 85be f8b8 80be d375 2cbc
000002d0: 6167 ffbc 1f70 2e3c a867 5abd de04 573c
000002e0: 6ad2 ce3d cb56 b33c 2ca7 3e3e e429 693c
000002f0: 7be3 9ebb 28bd 2bbd bdc6 33bd feda 9fbc
00000300: 3bc3 2d3d 88fd ddbd a040 d2bb 4f42 163d
00000310: fe24 30bb b0ce cabb 940b aebc b65b d8bc
00000320: 33ef 153d 8c9f f03d 123b 013d f9da a13c
00000330: 00eb 083e 3249 a83d 25fd 853d 5484 4d3d
00000340: 2730 29be de8e 74be da55 6bbd 4a7c 79bd
00000350: 884c cdbc 2f08 913d c959 5e3a 3c28 cebd
00000360: e39d b33d 1cbe f53c 1c7c 9dbc 993c c6bc
00000370: 358a 5abc 1737 e73d 7c89 d63c 979a 883d
00000380: 6d98 9e3b 1d1c b33d 9b35 e6bc 876c 0fbd
00000390: 4ed7 2dbd 76e6 2abe 1552 e73d b80e 6c3d
000003a0: 4007 0abe 604a 163e 0ca6 b63c 6aac 45bd
000003b0: 5216 46bd bcbf 67bc e699 e13c 9e6e ec3a
000003c0: 2a2b d1bc 33df 5f3d 0fe4 f5bd 2690 04be
000003d0: b282 07bc 6c75 fbbd 1a2d e53d 79ac a43c
000003e0: 0b67 36bd 28d3 e63d 57d0 bc3d 0075 cdba
000003f0: d36e 52bd d67d e8bd 353c bf3d 5a3e 29be
-0.017280648 0.004662844 0.012146351 0.019046143 -0.097006254 -0.035084162 -0.063760936 -0.0136677185
-0.113515325 -0.022683145 0.043034505 -0.005439069 -0.03476761 0.00033932645 0.12828834 0.0022719607
0.12894303 -0.011890417 -0.10442831 0.047700286 0.027826734 -0.107290655 -0.069651194 -0.0062872963
-0.059432548 0.13420394 0.01199854 0.14256106 -0.11459245 -0.052113008 0.13174412 -0.112042956
-0.042347275 -0.022211144 0.14288016 -0.017923882 0.0931067 -0.052007735 -0.021294162 -0.025640776
-0.16999057 0.020340607 -6.641224e-05 -0.14426549 -0.09058386 0.073676966 -0.050089624 0.095298946
-0.098116614 0.034383673 0.058982622 0.059709772 -0.0142884925 0.04102015 0.12230156 0.0619065
0.036279086 0.18060564 -0.11876551 0.1444562 0.051404025 -0.0033753486 -0.115827255 0.24491644
0.20958042 0.10019139 0.1076459 0.14787658 0.02641948 0.020064179 0.10084022 0.055993266
-0.05963478 -0.060140155 -0.099294 -0.0665947 -0.008593182 0.124830864 0.021526888 0.03920792
-0.15221715 0.14693682 -0.025284698 -0.09368449 0.038641717 -0.0036949257 -0.040304083 -0.04571123
0.047350317 -0.031078076 -0.06087393 -0.027108599 0.03669386 -0.059619423 0.004197998 0.03505592
0.05386942 -0.0023602678 0.03449433 -0.08751198 -0.07369928 0.084040485 0.21040995 -0.12748101
0.014146342 0.034653284 -0.12270068 -0.0065785716 -0.07130409 -0.1285104 -0.14524533 0.05225749
-0.25712308 -0.11475211 -0.026566349 -0.11938805 -0.085423924 0.09759577 -0.11003163 0.0339621
-0.074285984 -0.22068894 -0.09404373 -0.059447624 -0.040250175 -0.1570144 0.017078124 -0.12048915
-0.061449282 0.13626884 0.020296503 0.1415907 0.090872705 -0.025102777 0.023100197 0.026772982
-0.059690777 -0.09243294 0.10210066 0.00088048645 -0.013849822 0.024134208 -0.05756799 -0.08084678
-0.09649798 -0.097084135 -0.050624717 -0.06522682 -0.018383346 -0.13621527 0.06764496 -0.01540038
-0.08099999 0.026691165 -0.08816874 -0.10456997 0.064826034 0.09004689 -0.019572295 0.064268805
0.07597941 -0.013309084 -0.028630337 0.08228594 -0.12686321 0.04124692 0.033450138 -0.08916813
0.08880052 0.07719241 0.0065848376 0.065148704 -0.068479784 -0.048375815 -0.14490247 0.023007918
0.007579509 -0.26004088 -0.2514112 -0.010526138 -0.031177225 0.010646849 -0.05332151 0.013123719
0.10098727 0.021891972 0.18618459 0.014231179 -0.004848895 -0.04192844 -0.043890703 -0.019513603
0.042422514 -0.10839373 -0.0064163953 0.03668433 -0.0026877518 -0.00618919 -0.021245755 -0.026410919
0.03660507 0.11749181 0.031550474 0.019757735 0.13370895 0.08217086 0.06542424 0.050175026
-0.16522275 -0.23882625 -0.05745492 -0.060909547 -0.025060907 0.07081639 0.0008482007 -0.10066268
0.08770349 0.029997878 -0.019224219 -0.024198817 -0.013338615 0.112898044 0.026188605 0.06670111
0.004839948 0.087455966 -0.028101733 -0.03501561 -0.04244166 -0.16689476 0.11294953 0.057631224
-0.13479328 0.1467681 0.022295974 -0.04826013 -0.04836113 -0.014144834 0.027539205 0.0018038338
-0.025533278 0.05465622 -0.12006389 -0.12945613 -0.008270906 -0.12278256 0.11190243 0.020101773
-0.044531863 0.112707436 0.09219425 -0.0015675128 -0.05137522 -0.11352126 0.093376555 -0.16527691

cnn.network.3.bias f4 [16]
00000000: a2b1 8a3d 56ee 77bd c4ce 9b3d 19da a33d
00000010: 7ef0 643b 70e2 023e 760f 1bbe 03b8 3a3e
00000020: fd21 4d3a e0aa 8abe 90e1 6cbd bde1 95be
00000030: f96c 08be 7a7d 31bd 0f03 0fbe 06e5 83bc
0.06772162 -0.06053003 0.07607797 0.08000583 0.0034933384 0.12781692 -0.15142617 0.18234257
0.0007825194 -0.27083492 -0.0578323 -0.29273787 -0.1332282 -0.043332554 -0.1396601 -0.016100418

cnn.network.5.weight f4 [16]
00000000: 5eb2 833f 04c3 7e3f 1a00 803f 7f01 733f
00000010: 4c7d 7d3f c8a7 743f 3bff 813f fc11 7a3f
00000020: d1b8 7d3f 8164 7f3f 77b2 7c3f 2c4c 7d3f
00000030: 300a 843f 9d2a 843f dc74 843f d96f 813f
1.0288808 0.9951632 1.0000031 0.9492416 0.9901931 0.95568514 1.0156015 0.9768369
0.9911013 0.9976273 0.98709816 0.98944354 1.0315609 1.0325505 1.0348163 1.0112258

cnn.network.5.bias f4 [16]
00000000: 8373 74bc c632 d4bd afb9 dabd b356 86bd
00000010: 242b 59bd f2b9 c2bc f7b7 03bd dad6 0c3c
00000020: 011f 603d dd7b 9bbd f99c 81bd 8430 bcbc
00000030: 8a4e febc 7ab1 59bb 4968 e0bd 27f0 b8bd
-0.014920118 -0.10361247 -0.106799476 -0.06559505 -0.053019658 -0.023770306 -0.032157864 0.0085961465
0.054717068 -0.075919844 -0.06328768 -0.022972353 -0.03104331 -0.0033217357 -0.10957391 -0.090301804

cnn.network.5.running_mean f4 [16]
00000000: 54df 1a3f 8169 ad3e ac9a e03e 12b8 a73e
00000010: e136 4f3e 77a3 013f ce40 113e 9900 1f3f
00000020: 4a82 b23e 419b 9b3d dab7 903e a380 dd3d
00000030: 9f2f 9f3d 663a 013f 3db0 5f3e 2767 9b3e
0.6049702 0.33869556 0.43868005 0.32757622 0.20235778 0.5064005 0.14184877 0.62110287
0.34865028 0.07597972 0.28265268 0.10815551 0.07772755 0.50479734 0.21844573 0.30352136

cnn.network.5.running_var f4 [16]
00000000: 562c 063f c255 cb3e 5d24 c73e 3d73 713e
00000010: b8c3 5c3e 55a5 bd3e 114d b73d 5f8d 023f
00000020: 8921 8e3e 3965 643d 515f 9e3e 0fa5 863d
00000030: 2d6f a33d 6aaf 4c3f 9f27 333e 7d21 2a3e
0.524114 0.39713866 0.3889493 0.23579116 0.21559036 0.370402 0.08950246 0.50996965
0.2775996 0.055760596 0.30932096 0.06574451 0.079801895 0.7995516 0.17495583 0.16614337

cnn.network.6.weight f4 [16, 16, 3, 3]
00000000: d228 9fbd 54c4 4fbd 5660 5c3d 71ec 6abd
00000010: 401f 43bc 2a96 aabc 2128 b83c ac34 81bd
00000020: 5df8 2f3d 57c1 8f3d 0c3c 853c f2be 5e3d
00000030: df8b d13d b36d d9bd 0515 1c3d 0202 1a3e
00000040: bdf3 573d 0a32 033d 4654 0cbc 2880 f7bc
00000050: 08bf b9bd 9486 0dbc d976 64bc 1196 69bd
00000060: ce7b 57bd 3ed2 453d 9f25 743d 0c53 d1bb
00000070: 9efc 9d3d 4cbe 843d c3c1 14bd 6a61 aa3d
00000080: 0e24 a4bb a7b7 7cbb 4562 423d b48c 3ebd
00000090: 1c81 56bd 4318 183d ab1c 22bd e75f a53d
000000a0: a0e6 7ebd 5604 693d aadb acbd c942 203e
000000b0: 7654 dabc 29dd 243d 6d07 bdbb 2bf4 4abd
000000c0: 1d32 35bc 6a08 0abd 336f d63c e63a 49bd
000000d0: 6752 333d a7ef 05bc f2a7 50bd fc7d e53c
000000e0: 4868 223d 3c37 7b3d dae8 29bd db71 d13d
000000f0: d79d a13c 7af6 383d 479b a13d 913a 23bd
00000100: 529d 3ebc 3d36 c33d db88 53bd d8e6 8ebd
00000110: e44c c73d 09bb 49bd 9b14 bd3d d5a9 29bd
00000120: 8873 d93d c610 f73d c5a4 e33d e477 983d
00000130: 0932 c7bb 1619 8bbd 1bee 52bd 4c5b f83d
00000140: 0a9b d23d ab21 ebbd 0476 33bd 28ea 263d
00000150: 185b a5bc 55ed 1c3e ba04 973d 3677 fdba
00000160: fd8d 64bc 4143 5c3a 1679 863d bfc3 453c
00000170: 993d 65bd ea84 c1bc d2b7 8d3c 9e9e be3b
00000180: bd3e 893c 6ff9 b7bd c744 073e 0f87 ddbb
00000190: e2fd 943b 038b c13c aa1e 45bc e160 93bc
000001a0: 3c0b 433d adac 323c 6bd4 41bc 4d83 e63c
000001b0: d5b3 92bc ff75 5fbc 12b3 22bd 6540 453b
000001c0: 568c 38be 5712 1bbd 46f8 f13c d3f9 b53b
000001d0: 97c6 a0bd 5ea7 e03d ca3f eb3d 5d54 ff3c
000001e0: 64dd f53d ef8d 033e c5b7 5b3d da4f ee3c
000001f0: 11be 913d 7711 b93d 230d fc3b 17d1 11bc
00000200: 3f0c 973d 6dce 7abd 26f1 d8bd aba6 be3d
00000210: b98d 47b9 a34e 37bd 6c49 df3c 2878 0fbd
00000220: 3752 19bd 37bd 10bd d5d3 16bd 7db6 033d
00000230: ced9 ee3c a205 bebc 7ba2 9ebc 2fef 2b3d
00000240: 4296 5b3c 3464 053e 2b8f ce3d 1c53 fc3d
00000250: efae 7ebd 3c10 06bd 69b0 4d3c 4740 e43c
00000260: c2e0 66bd 970d eb3d 411e 203d f55e 6f3d
00000270: 5242 c43d 73b8 e6bd 4430 fb3a 7457 ab3d
00000280: 3ea6 853d fae7 d8ba 463c 963d 40a6 063d
00000290: e643 ac3d e598 313d e346 b63d 0657 a0bb
000002a0: 4733 c43d f53e 433d 7c95 a73d dd75 2fbc
000002b0: 7c8d 803d 49b4 b53d 8bd0 8bbd 5854 0c3d
000002c0: 73d2 ae3d 8b7f 9dbc 9d26 983d e51d f13c
000002d0: abec 823d 3636 f63d 6215 f43d c186 403e
000002e0: 059c 053d 050f 013e 6992 a6bc edc6 c43d
000002f0: b619 2dbb 696b fabc 3544 b5bc 05d9 66bd
00000300: 5b95 58bd 686a a6bd a13e e2bd d3ff 0abd
00000310: eea2 5c3d 4a0f 8c3d 4ecb e73d 9478 cd3d
00000320: 4a82 bd3b c4da 05bd fcb9 e9bd 7b51 333d
00000330: 6b6c 91bb ecda ac3d 41ff 013e c942 18bc
00000340: cf44 9a3d fb5d 1a3e dddb 65bd a032 cf3c
00000350: c1a6 093c 84ee 3dbd 358c f43d cfa5 a6bc
00000360: a32a 82bc 81bf aabc 70af ddbd 694f d4bd
00000370: ddda debd 69f6 15be acd9 0bbe dd68 933d
00000380: 055a abbd 2fdb 28bd b847 cbbd 37f6 ca3d
00000390: d1bb 9d3d e90d 0f3e 6a73 0d3e 7f58 a0bd
000003a0: d014 e63b 4bd5 873d caa4 e9bc f05b bfbd
000003b0: 85c0 e93d f72c 84b9 35e6 e83d 72a1 df3c
000003c0: 15ec 953d 9a6b a83d 1e50 af3d 317e be3d
000003d0: 2a59 b9bd fbcb ba3d 78f2 4abd 3412 e4ba
000003e0: ec40 06be e2c1 853c 4c3e a73d ed3b 9fba
000003f0: b35f edbc 692e 173d f0eb aabc c4e5 073e
-0.07771458 -0.050724342 0.05380281 -0.057354394 -0.011909306 -0.020823557 0.022480072 -0.063088745
0.042961467 0.070192985 0.016263984 0.05438132 0.102317564 -0.106166266 0.038105983 0.15039828
0.05272268 0.032030143 -0.008565014 -0.030212477 -0.090696394 -0.008638043 -0.013944351 -0.05702788
-0.052608304 0.048296206 0.05960619 -0.006388074 0.077141985 0.06481609 -0.036317598 0.083193615
-0.005009181 -0.0038561614 0.047457 -0.046520904 -0.052369222 0.037132513 -0.03957812 0.080749325
-0.06223166 0.0568889 -0.08440335 0.15650477 -0.026651602 0.040249977 -0.0057687075 -0.049549263
-0.011059311 -0.03369943 0.02617607 -0.049128436 0.043779757 -0.008174813 -0.050941415 0.028014176
0.03965023 0.061331972 -0.04148183 0.10226794 0.019728584 0.045156933 0.07890945 -0.039850775
-0.011634188 0.095318295 -0.051644187 -0.06977624 0.097314626 -0.049250636 0.09232446 -0.04142173
0.10617739 0.12063746 0.11115412 0.07444742 -0.0060789627 -0.06791894 -0.051496606 0.121267885
0.102834776 -0.11481031 -0.04381372 0.040750653 -0.020185038 0.1532491 0.073739484 -0.0019337896
-0.013949868 0.00084023556 0.06566064 0.012070595 -0.055966947 -0.023622949 0.017299566 0.0058172485
0.016753549 -0.089831226 0.1320983 -0.006760485 0.0045468668 0.023625856 -0.012031237 -0.017990531
0.047618136 0.010905427 -0.01183043 0.028138781 -0.017908016 -0.013638972 -0.039721556 0.0030098197
-0.18022284 -0.037859287 0.029537331 0.005553463 -0.07850378 0.10969423 0.11486776 0.031168157
0.120051175 0.12847112 0.053642053 0.02909081 0.071163304 0.09036534 0.0076919957 -0.008899949
0.07375383 -0.06123202 -0.105928704 0.09309133 -0.00019030915 -0.04475273 0.02725669 -0.0350267
-0.03743192 -0.0353367 -0.036823113 0.032156456 0.029156592 -0.023196045 -0.019364586 0.04197615
0.0134025235 0.13026506 0.10085901 0.12320539 -0.06217855 -0.032730326 0.0125542665 0.027862681
-0.05636669 0.114772014 0.039091352 0.058440167 0.09582962 -0.1126565 0.0019164165 0.0836629
0.06525849 -0.0016548627 0.07335715 0.032873392 0.08411388 0.043358702 0.08900239 -0.0048931865
0.09580093 0.047667462 0.08182809 -0.010709253 0.06276986 0.08872277 -0.06826886 0.034260124
0.08536234 -0.019225856 0.0742924 0.0294332 0.06392797 0.12022059 0.11918141 0.18801405
0.032619495 0.12603386 -0.020333486 0.096082546 -0.002641303 -0.030568795 -0.02212725 -0.05635931
-0.05287681 -0.08125764 -0.11047102 -0.03393538 0.05386632 0.06838854 0.11318074 0.10032764
0.005783354 -0.032679334 -0.11412427 0.043778878 -0.0044379733 0.084401935 0.12695028 -0.009293267
0.075326554 0.15074913 -0.05611788 0.025292695 0.008401574 -0.046370044 0.11940805 -0.020342736
-0.015889471 -0.02084327 -0.10824478 -0.10366709 -0.108815886 -0.1464478 -0.13657254 0.071977355
-0.08366779 -0.041224655 -0.09925789 0.09910243 0.07701839 0.1397015 0.13813558 -0.07829379
0.007021524 0.06632479 -0.02852096 -0.093437076 0.11413673 -0.00025210503 0.113720335 0.027298663
0.0732042 0.08223648 0.08560203 0.09301413 -0.0905021 0.091209374 -0.049547642 -0.0017400444
-0.13110703 0.016327802 0.08166179 -0.0012148597 -0.028976297 0.036909495 -0.020864457 0.13271242

cnn.network.6.bias f4 [16]
00000000: 698e 963d 3973 d3bd e07c 073e ead4 0e3c
00000010: 4cc3 fbbd 8a0e c2bd 963e 0a3d cfab c6bd
00000020: 4505 b8bd 534d 403d 2212 a0bd 1ab0 2b3d
00000030: 56f6 79bd 9145 3bbd 81cd 74be dfc9 53bd
0.07351381 -0.10324711 0.1323123 0.008717755 -0.12293109 -0.09475429 0.033751093 -0.09700739
-0.0898538 0.046948742 -0.078159586 0.04191599 -0.06102594 -0.04572064 -0.23906519 -0.05170619

unet.enc1.0.weight f4 [16, 16, 3, 3]
00000000: 7165 d83c a89b 5bbd 4bc9 3cbd 6e98 003d
00000010: b1c7 22be 7450 54bd 2e70 ddbd 3cde e63b
00000020: 1af7 cabc 8a06 49bd 7ad0 83bc 23c7 353d
00000030: 78a9 edbc 1cb7 12be 14d2 5f3d 59cb bb3b
00000040: 313d 103d 47c5 1d3d b87a bd3d cd24 a43c
00000050: 2299 aa3d d4b3 013d ca3c 683b f3aa 34bd
00000060: 7353 d63d bffb a73d b74d 16bd 8b3a c8bc
00000070: e414 ad3d 8b2b b53d ee83 e13c 13c2 81ba
00000080: d895 203d c128 cb3b 9161 35bd b4db 48bd
00000090: ef9e 1bbd fcda 77bc f0e0 eebd 4d71 233d
000000a0: f31e 52bd ae88 81bc f3b1 c63d 605f babc
000000b0: 7728 343d ba88 a7bc 1874 9d3d 438e 7ebd
000000c0: c150 923d 34c2 e0bc 5c6e 663d 8315 0c3d
000000d0: ea00 cebd 3df5 28bd c517 0b3d 135c 973d
000000e0: 63d5 ff3c 75e6 2bbd 3e01 8d3c 6703 823d
000000f0: e985 8a3d 958e 623d f750 3dbd f02c 3a3d
00000100: b90d 66bd fef9 5c3d b7f1 6fbd 452e 1e3d
00000110: 398b 3f3d 319a 2ebc 8f67 39bb 1d83 0e3c
00000120: fa14 a13d 5fd7 733d 8e33 043e 324e a73c
00000130: 00a6 0a3d 3ffa 7a3d 2036 bc3d cdae a7bb
00000140: 83ae 123d 9d6e c9bd 6f67 b4bd aa23 d23c
00000150: 8487 12be 5b10 f6bd 90fb edbd 3166 6fbd
00000160: d74c f0bd 416e 23bd eebe 86bd 9918 b73d
00000170: 0b99 a9bb 7b9e 31bd 3c07 853d d9a6 b13d
00000180: b1b9 cd3d 93a7 55bc 48ad 90bd 81ae a73d
00000190: 8367 073d e580 4c3d ebf7 ab3d 6d12 9dbc
000001a0: 2bba 533d e117 ab3d 0dde cc3c 38b1 49bd
000001b0: 14fe 523c 0cda cf3a 7ac6 343d 7a55 59bc
000001c0: 5ed8 6fbd 468e 18bd c891 503c c360 90bd
000001d0: 8f86 263d 1b18 7b3d 6405 3cbd 5beb 8b3d
000001e0: 2def 18bd a27f 263d e510 353d f290 15bc
000001f0: 9f6d 6c3d b21d 5f3d 3e4a 883d 96d0 af3d
00000200: 919e b3ba 18a1 a1bb 66ea d93d c6b1 b23d
00000210: d5d7 ed3d bda2 ef3c f205 5d3d ae79 b03d
00000220: 7963 78bd ef4f a83d 4c9e a53d bd18 8e3d
00000230: 1a40 763b 502f 91bc 3e27 303b 62ec c23b
00000240: 6337 583c 9f0e 553d 22f1 7c3d 34b7 06bd
00000250: 3807 d83b 10d8 8e3d 695d 9abc a845 33bd
00000260: 442b 363d ad6e d13b 741c 0f3d 9cb5 b5bc
00000270: 2e11 72bc 84b5 973c 8816 94bb 3584 b43c
00000280: 535c 30bd af75 02bd a870 ba3d 10a5 06bd
00000290: 4efe c0bc 2cfb c73d ebe5 18bd c29d 48bc
000002a0: 7c8a b13d a211 a7bd 4cff b8bc a738 55bd
000002b0: e515 7cbd 9057 0e3c 7a50 193d d440 97bb
000002c0: a7c8 3fbd af65 a53c af6b 213b 1805 04be
000002d0: a1f3 823d 5fbb a33b 3e28 a83d ea9d 603c
000002e0: ea76 b5bd 011c 8cbd 6f35 163d fb50 bcbc
000002f0: b2be 16bd 8aa3 413e 5514 d33c f098 10bd
00000300: 520b 8c3d c384 46bc 8c54 10bd c3f9 413e
00000310: 266c a93b 21fb 2ebc 0e66 a53d 8637 d03d
00000320: b0a3 d03d c329 e33d 62b6 0abd 58bf 04bc
00000330: e9e2 843d ad26 2a3d c427 433e 6ece ebbd
00000340: df23 02be 8aca 03be 2937 eebc 8ef9 09be
00000350: 4069 ccbd 31d3 d5bc e301 2fbd b617 0bbe
00000360: efb1 53bd 5c6a 48bd 559a ae3c ca1c 76bd
00000370: 9d9c dfbc 8ede b0bc e75a f8bd 9ef3 d0bc
00000380: e5f3 6dbd b99d 72bd 3ded 82bb b883 623d
00000390: fa2a 7fbd 0653 b13c 1eab 7c3d bc11 703d
000003a0: 01db 143d 0f09 52bc f516 633d 76bd d33d
000003b0: 213f 3f3e 363a aebc 49c4 a53d 8546 2f3c
000003c0: 35d1 c2bd 73c9 8e3c 279f a6bd 21f7 243d
000003d0: c1b7 5dbd 6367 823d ee2f f03c b6ac 8ebd
000003e0: 0ad4 aebd faf3 1b3a 2b68 c63c 4759 15bd
000003f0: 0b2d 283d a50e 63bd 1663 78bc 9b0e 223d
0.026415559 -0.053615242 -0.046090405 0.03139537 -0.15896489 -0.05183454 -0.10812412 0.0070455354
-0.02477603 -0.0490785 -0.01609062 0.044379365 -0.029011473 -0.14327663 0.054643705 0.005731028
0.035214607 0.038518216 0.09251922 0.02003708 0.08329989 0.031665638 0.0035436624 -0.044108342
0.104651354 0.08202314 -0.03669521 -0.024441978 0.0845125 0.08846196 0.02752873 -0.0009899758
0.039205402 0.0061999266 -0.0442825 -0.04903765 -0.037993368 -0.015127894 -0.11663997 0.039902974
-0.051299047 -0.015812244 0.0970191 -0.022750556 0.043983903 -0.020450938 0.07688159 -0.06214739
0.07144309 -0.027436353 0.05625759 0.034200203 -0.10058768 -0.041249502 0.033958215 0.07390609
0.03122968 -0.041967828 0.017212506 0.06348305 0.067638226 0.055311758 -0.046219792 0.045453012
-0.05616543 0.05394935 -0.058580127 0.038618345 0.046763632 -0.010656879 -0.0028290485 0.008698252
0.07865329 0.059531566 0.12910292 0.020423029 0.033849716 0.06127381 0.09190011 -0.0051172734
0.03581096 -0.09835551 -0.08808791 0.025651772 -0.14309508 -0.12014838 -0.11620247 -0.058447067
-0.11733406 -0.03990007 -0.06579386 0.089402385 -0.005175715 -0.04336403 0.064955205 0.08674402
0.100451834 -0.013040441 -0.07064301 0.08187581 0.0330577 0.04992761 0.08396896 -0.019173825
0.051691215 0.08354164 0.025008226 -0.049241275 0.01287796 0.001585783 0.044134595 -0.013265008
-0.058555953 -0.037245058 0.012730069 -0.07049706 0.04065567 0.061302286 -0.04590358 0.06832
-0.03733747 0.040649064 0.044205565 -0.009128796 0.05772173 0.05447168 0.066547856 0.085847065
-0.0013703873 -0.004932534 0.10640411 0.08725314 0.11613432 0.029252404 0.053960748 0.086169586
-0.06064174 0.08218371 0.08086833 0.06938312 0.0037574829 -0.017722756 0.002687886 0.005948589
0.013196799 0.052015897 0.0617534 -0.03288956 0.0065926574 0.069748044 -0.01884337 -0.0437676
0.044474855 0.0063913674 0.034939244 -0.022181325 -0.014774604 0.01851917 -0.0045192875 0.022035697
-0.043056797 -0.031850513 0.09103519 -0.03287226 -0.023558762 0.09764704 -0.03732864 -0.012244644
0.08668992 -0.0815766 -0.022582673 -0.05205598 -0.061544318 0.008687869 0.037430264 -0.0046158824
-0.046822216 0.020190088 0.0024630835 -0.12892568 0.06394125 0.0049967016 0.082108006 0.013709525
-0.08860572 -0.06841279 0.036672052 -0.022987833 -0.036802955 0.18910041 0.025766531 -0.035302103
0.06838097 -0.012116614 -0.03523688 0.18942933 0.005170363 -0.010679991 0.08076106 0.1016684
0.10187471 0.1109195 -0.03386534 -0.0081022605 0.06488592 0.04154079 0.19058138 -0.11513983
-0.12708996 -0.12870231 -0.029079037 -0.13474104 -0.09981012 -0.02610168 -0.04272641 -0.13583264
-0.051683363 -0.048929557 0.021313826 -0.06008605 -0.027296359 -0.021590497 -0.12126713 -0.02550679
-0.058093924 -0.059232447 -0.003995566 0.055301398 -0.062296845 0.021646034 0.061686628 0.058610663
0.03634167 -0.012819543 0.055441815 0.10338871 0.18676426 -0.021267992 0.08094079 0.0106979655
-0.09512559 0.017430043 -0.08135825 0.040274743 -0.05413032 0.06367376 0.02931973 -0.06966536
-0.08536537 0.0005949136 0.024219593 -0.036462095 0.04105858 -0.055433888 -0.015160343 0.03956471

unet.enc1.0.bias f4 [16]
00000000: e769 be3c 27c9 acbc e534 cbbd 3ec2 69bc
00000010: 9755 563d e5df d4bd 9e33 28bd 9df9 f63a
00000020: 574c ea3d 6544 3b3d c5c9 ecbc 694e 913c
00000030: 7fc3 2ebd 3b2f b13d e4bd 03be a4e1 423c
0.023243858 -0.02109201 -0.09922198 -0.014267502 0.05232772 -0.10394267 -0.04106485 0.0018842701
0.11440342 0.045719523 -0.028904805 0.017737584 -0.04266691 0.086515866 -0.12865406 0.011894617

unet.bottleneck.0.weight f4 [32, 16, 3, 3]
00000000: 17e1 a03d 23be d8bd 1501 7fbd 649c eebb
00000010: 6ea3 3cbd f224 f73c ee86 413d 2717 dbbd
00000020: 7c99 7e3d 0247 2d3d 6038 d93c 056a d13b
00000030: 2c6d 773c 37c5 22bc 175f 3cbe 1456 c83c
00000040: ade0 1fbc 18b7 d6bd 22e1 2b3e 462a b5bd
00000050: d056 19bd c15e 093d e4b1 03be b2d2 2c3d
00000060: 4300 8a3e b065 1f3d a882 8e3d d66f 743d
00000070: ebc6 bcbd 7b76 f13c 2795 93bd 5309 dbbc
00000080: ddc8 f13d d263 a83b a591 6a3d dc4c 243d
00000090: 98a0 8d3d c4b3 8c3d d9ff c039 18b1 ef3d
000000a0: 818e b13d 50c4 4cbd 8efd 603b b98d c7bd
000000b0: 2d89 0dbd cade cfbd 1dc6 8ebe 245c bc3c
000000c0: febd d3bd 887d 833d 7040 103d 5427 85bc
000000d0: 8846 be3c c313 2a3d 5b9e 1c3e 6db0 bdbd
000000e0: 8501 65bd 1d6e 943d 0e9d d3bd 7ec8 4e3c
000000f0: 3ce4 d03d fc56 7b3c 8723 003d 4117 84bd
00000100: cf99 0fbd 3acb 193d dacd 6b3d b112 dc3c
00000110: 9240 143e 6163 e7bd b10a d6bd bb06 903d
00000120: 063f a53b 1f7d 263b 337f e23d f6a8 e43c
00000130: 1ca8 06be 066f c1bb 430d 513d 59a2 65bc
00000140: d369 0e3d 1053 16bd ffef 36bc 6655 9ebd
00000150: 5d00 52bc b706 61bd 0e80 893c c77c 81bc
00000160: b16b 55bc e805 a83c 37ee d3bd 62f5 753d
00000170: 487c b0bc a771 ac3c a1be ae3d 98a4 963c
00000180: 86d1 39bd af71 40bd 9a26 bfbc 245c b13c
00000190: 4ade 413d 2841 833d 1d45 003e 2467 813c
000001a0: cc04 9cbc e040 f03c 547a 113c 2bb2 c73c
000001b0: 9d7c 7dbe 52e8 b33d 3868 dd3c dc14 b3bd
000001c0: faaf c73c 654d 013e f02f e7ba 0b37 0b3c
000001d0: f99e 4ebd ea1d 093c 1c98 703d e74d e23d
000001e0: 7713 ff3c 2822 07bc 5a0b 8c3d 8518 683d
000001f0: 0a1c 03bd 9ad7 8fbd 2a19 84bd 6dd9 54be
00000200: 1627 703d dd36 fc3c b069 073d 2d33 8439
00000210: 180c c9bd fbac 06be 5c7e fe3d f167 133d
00000220: 73a1 5dbd e339 0fbb 1102 89bb 12ce 413d
00000230: f688 a9bd 09ac 423d 9430 c6bc 7399 fbbd
00000240: 10ab 933c c210 eb3d 040a b9bd d6c7 ad3d
00000250: 1152 db3b c909 1a3d b8ea 6c3d 75f0 1bbe
00000260: f447 4bbd 93e6 62be 32cc ae3d 4ce2 5e3c
00000270: fb24 22be f914 d43d 6b60 8b3d 144b e23c
00000280: 1784 a5bc ec7c 99bd c156 5fbc c658 36be
00000290: 89e6 e03c d9a0 1e3e 5234 203d b179 533e
000002a0: b975 21be d353 253e 9965 c73c 3a3f 953d
000002b0: ea46 553e 48fc 2bbb 6e5b 253d ae6a 0e3e
000002c0: 5179 c1bd 0b18 e53d 4127 c03d db29 303d
000002d0: 0ffe e73d 5a8d 043e e9ee 50bb 04a9 cb3d
000002e0: b0b9 b33d c270 56bd f71d 6e3c 9332 3b3d
000002f0: 6a93 f7bc 9963 463d c383 f2bc f42f e0bc
00000300: 085f 4c3e 5e91 e6bd 5c3d dcbd cbd1 043e
00000310: 3b2a cebd 8647 59bd 6900 e1bb 7d7d fb3a
00000320: 26e6 71bd 0021 debb ee51 5db9 a1a6 15bd
00000330: a830 823d cd70 023c 1793 e63d 4fc5 6c3d
00000340: 0f5b 2d3e 8174 6b3d b6d0 463d 14ad eb3d
00000350: 9d9a 153d 8658 bdbd a5d5 eb3d 1c86 9d3d
00000360: 2a7f 013c 7c6e 0e3d c69f f6bd 65e1 bbbb
00000370: 94d5 11bd c901 10be 6fb3 61bc bbba 2dbe
00000380: d518 ba3c 9d5e 593d d825 05bd 9f31 f5bd
00000390: a222 37bc 3844 8dbd c5f8 e73c 51c5 b4bd
000003a0: 645b 8ebc 42b2 e23c 2f0a cc3d 3061 183d
000003b0: c30c 073c 40a2 16be 8f37 dc3b d1b3 bbbd
000003c0: 318d 87bd 47bb bdba ee1a be3c 3154 27bc
000003d0: 01a1 943e 3251 003d a676 9f3d 0b8f 8fbb
000003e0: 9378 a1bd c6eb 54bd 6768 3d3d 7060 85bb
000003f0: 7a42 ae3d a782 1ebe 8c5a 05bd bdd8 0ebd
0.078554325 -0.10583141 -0.06225689 -0.007281827 -0.046054296 0.030168984 0.04724782 -0.10697775
0.062158093 0.042304046 0.02651614 0.0063908123 0.015101712 -0.009934715 -0.18395649 0.024455108
-0.009758157 -0.10484141 0.167851 -0.08845954 -0.037436306 0.03353763 -0.12860829 0.042193122
0.26953325 0.038915336 0.069585145 0.059676968 -0.09217628 0.029475441 -0.07206183 -0.026737845
0.1180589 0.0051388526 0.057267804 0.04011236 0.069153965 0.06870225 0.00036811715 0.117037
0.086697586 -0.049991906 0.0034330818 -0.09743828 -0.03455465 -0.101499155 -0.27885523 0.022993155
-0.103389725 0.064204276 0.035217702 -0.016254105 0.023226991 0.041522752 0.15294783 -0.09262166
-0.055909652 0.07247565 -0.1033269 0.012621043 0.10199782 0.015340563 0.03128388 -0.06449748
-0.035058793 0.037547328 0.057569362 0.026864382 0.14477757 -0.11298252 -0.10451258 0.07032534
0.0050429134 0.0025404168 0.110594176 0.027912598 -0.13150066 -0.0059031276 0.051038038 -0.0140157575
0.03476889 -0.03670031 -0.011165618 -0.07731132 -0.012817469 -0.054938044 0.016784694 -0.015806569
-0.013026164 0.020510629 -0.1034817 0.06004847 -0.021543637 0.021050287 0.08532453 0.018389031
-0.045365833 -0.046983417 -0.023333836 0.021650381 0.047331132 0.06408912 0.12526365 0.015796252
-0.019045256 0.02932781 0.008879263 0.02437695 -0.24754567 0.08784546 0.027027234 -0.08744213
0.024375904 0.1262718 -0.0017638188 0.00849701 -0.050444577 0.0083689485 0.058738813 0.11050015
0.031137211 -0.00824789 0.06838103 0.05666401 -0.032009162 -0.070235446 -0.06450112 -0.20786066
0.058631025 0.03078788 0.033059776 0.0002521513 -0.0981676 -0.13151924 0.12426445 0.035987798
-0.054109048 -0.0021854572 -0.0041811545 0.047315665 -0.08278076 0.047527347 -0.024193086 -0.122851275
0.018025905 0.11477806 -0.090351135 0.08485381 0.0066931327 0.037606988 0.057841033 -0.15228446
-0.049629167 -0.2215827 0.08535041 0.013603758 -0.1583442 0.10355563 0.068055 0.02762369
-0.020204587 -0.0749453 -0.013631524 -0.17807302 0.027453678 0.15491046 0.039112397 0.2065189
-0.15767564 0.16145258 0.024340438 0.0728745 0.20827833 -0.00262429 0.040370397 0.13907883
-0.094469674 0.111862265 0.09382487 0.043008666 0.11327755 0.12944546 -0.0031880683 0.099443465
0.087756515 -0.052353628 0.014533511 0.04570253 -0.03022166 0.048434827 -0.029603845 -0.027366616
0.19958127 -0.11258195 -0.10753891 0.12970655 -0.100666486 -0.053046726 -0.006866504 0.0019187179
-0.059057377 -0.0067788363 -0.00021106724 -0.036535863 0.06356937 0.007961464 0.11258524 0.057805356
0.16929267 0.057484154 0.048538886 0.115076214 0.036524404 -0.092454 0.11515359 0.07691595
0.007903853 0.034773335 -0.12042193 -0.005733656 -0.035604075 -0.14063181 -0.01377569 -0.16965763
0.022716919 0.053068746 -0.032506794 -0.11972355 -0.011177691 -0.06897777 0.028316865 -0.088266976
-0.017377563 0.02767289 0.0996288 0.03720206 0.008242789 -0.14710331 0.0067204903 -0.09165157
-0.06618727 -0.0014475369 0.0232062 -0.010212944 0.29029086 0.031327434 0.07786302 -0.0043810657
-0.07884326 -0.051982664 0.046242144 -0.004070334 0.08508773 -0.15479527 -0.032557055 -0.034874666

unet.bottleneck.0.bias f4 [32]
00000000: c19e d83d b03c 36bd 2fc4 50bd 8b47 793d
00000010: 44d5 60bd a735 2ebe e522 183d cff6 723c
00000020: 73d5 66bd 1374 fcbd 59fa 3abb fd4d 1dbe
00000030: 8e0e e5bc 1991 6dbc 9838 e03d f47f e33d
00000040: 6c48 493e 0b86 93bd 3c86 413d be8f 2dbd
00000050: d556 663d a965 cdbd 6ebc 8b3c 93cd cabd
00000060: 18ec a63e 3659 5cbd 9a95 8c3d 6a26 1f3e
00000070: 6aa5 7abb 669b 94bd 48fb a23d 6c84 e43d
0.10577155 -0.04449147 -0.050968345 0.060859244 -0.054890886 -0.17012654 0.037142653 0.014829352
-0.056355905 -0.12326827 -0.0028530566 -0.15361781 -0.027961042 -0.014499926 0.109482944 0.111083895
0.19656533 -0.07203301 0.047247157 -0.04237341 0.056235153 -0.10029156 0.017057624 -0.099024914
0.32602 -0.053796016 0.06864472 0.15541998 -0.0038245567 -0.072562024 0.07958084 0.1115807

unet.up1.weight f4 [32, 16, 2, 2]
00000000: 5b76 21be 5941 03be c68c fd3a 1d67 9cbd
00000010: c229 0b3d bede 01be c9fe 613d 5605 743d
00000020: d4df f23d 5b6d 963d c524 bebd fbad 023d
00000030: 8a6c 063d 36d7 6b3d 06fe 423d 9a2b f43d
00000040: ae4e b93d b5f5 e8bd 184f 0a3e 7156 afbd
00000050: cd0b 74bd 2987 e93c 5003 09be 8dda 8bbd
00000060: c8c3 bc3d 7305 bc3d ea08 9abd 8953 81bd
00000070: c11e d4ba 68ad c03c 2442 923d 90de c3bb
00000080: a726 5dbd 7da6 ef3d 0313 83bd 2db9 203e
00000090: d43b e03c 1d80 9fbd 2b0f b13d e65f 28be
000000a0: b519 da3d f98a 07bd 8fcf 60bd 90b3 01be
000000b0: 58af f0bd 8407 3dbc 857e 01bd 912a dabd
000000c0: 5560 9b3d f871 cb3d 9b6f 133e 6783 063e
000000d0: c4bb 35be 52d5 9dbc 5287 55bd 9858 973d
000000e0: 60ab 0b3e e2ec 4a3d 8ded 8ab9 4852 543d
000000f0: fab8 063d c93d 31be 9b5c c7bd 93be 10be
00000100: e0c0 863d 4b95 973d 0b62 443e caca 0e3e
00000110: 8d29 0c3e 6893 713d aac5 10bd f5b5 2e3d
00000120: e20d b03c 93fc 6ebd 55f1 6f3d dc0c 18bd
00000130: 4867 8b3d 9cfe ab3d e62e cd3d 7ee2 e3bc
00000140: ac23 f3bc 9c1c 403d 53ba 47bd 11aa d03c
00000150: 50ee 0cbd 81b3 c1ba b0b3 8cbd 280d 81bd
00000160: dca7 e3bd 2526 05be d9e3 7cbe c29b 30be
00000170: c154 bbbb 6ba3 c33d 2b84 dd3d 3ec4 7f3d
00000180: 8732 0c3d 60cb 0ebd 95ce 843c 07a2 9d3d
00000190: dea2 373d 80b9 0a3d 3bf9 10be 334e a0bc
000001a0: 68c4 963d 395e 593d 38d3 083e 2481 063e
000001b0: 58b2 0fbe e25f 3cbc 812d 5bbd 6818 9c3d
000001c0: fe86 5f3d 1460 2c3e 2033 103e 8754 93bc
000001d0: dc4b 223e e60e 3f3d c49b 473e 8464 063d
000001e0: 606e be3d 42c6 1f3e 926c 993d 7b04 cebc
000001f0: 9178 4c3d 393c c8bd 46ca 45bd 88b1 a1bc
00000200: ca6f 6ebd 0d3b 8c3c 6d8c 36bd 2d2a 5cbd
00000210: 85a3 a3bd 69a0 bcbc b837 b1bb ce26 20be
00000220: 2802 d3bd 7e7f dbbd aaea acbd ef2a 2c3e
00000230: 263f 73bd 3f78 d3bc 1ea6 23be f5ab 4fbd
00000240: 6aa9 01bd b153 16be e83b 243e 90da 7fba
00000250: d5b9 86be aca3 97be 1747 02bf 561a cbbe
00000260: 76f3 8a3e 2c26 a23e f39d 683e 52e7 a83e
00000270: ba88 1ebe f03b 3a3e 34b7 9ebe 3da8 45bc
00000280: c7b1 763e 9a08 7e3e be38 be3d 0e90 8f3d
00000290: 02d5 90bc decb 1f3e 8272 cd3d 99f5 293e
000002a0: 75de cb3d 290f 373d cdd2 0abc eb82 603d
000002b0: debb 8a3d 3377 38bd 5b05 31bd 1922 aebd
000002c0: a7a6 4fbd 4154 013d a365 c33e 989c 7c3e
000002d0: dd8b bcbd fd92 21be 2a39 873d bff8 183e
000002e0: 8a57 1abe a22b 483b 0691 4abe b397 85be
000002f0: 8e3b 043e 33a5 663c 4fed a93d a6bf de3c
00000300: 36ff 103e 105c 33bd fd6c fe3d ae74 e43d
00000310: 712d 88bd 9a47 f1bd eaae 013e 1ae3 efbd
00000320: 2a0a 94be 0207 48be 954e 8bbe 73fd 8ebe
00000330: ddcf 1fbe 8364 3a3c 1735 02be 278a 08bd
00000340: ad02 fc3b 3166 193d 7832 2bbd 027f 613b
00000350: 42b5 d8bd 4f11 c8bd 64a6 183d a6cf 49be
00000360: c76d bbbd f579 2abd b5ab 00bd 03fb ecbd
00000370: ecb5 7ebd 0f68 403e 7250 373d 9846 98bd
00000380: ff86 bebd fa28 c9bd 7a1f 5e3c 04cc c3bd
00000390: 687b 643e 332b 053d 7394 a5ba 5ecb 97bd
000003a0: f788 bdbd e824 a6bd 540c c3bd 965d c8bd
000003b0: 2881 c2bd 384b 0fbe ff65 d5bb be06 02be
000003c0: 0a64 413e 8cc2 493e 658f 463c da4c d33c
000003d0: 4011 df3d c9c3 93bd c937 8d3e 80d0 4abd
000003e0: 7b4f 7e3e d22e 9e3e f824 653e 1a10 7f3e
000003f0: 9668 803e b142 b0bd 1338 84bb 3083 72bd
-0.15767805 -0.12817897 0.0019344322 -0.07636855 0.03397537 -0.12682626 0.055174623 0.0595754
0.11859098 0.07345077 -0.09284357 0.031904202 0.032818355 0.057578288 0.047605537 0.11922379
0.0904821 -0.1137499 0.13506734 -0.08561409 -0.059581567 0.028506832 -0.1338017 -0.06828795
0.0921703 0.09180727 -0.075212315 -0.06314761 -0.0016183482 0.023520187 0.071415216 -0.0059774593
-0.05399194 0.11701677 -0.064001106 0.15695639 0.027372278 -0.077881075 0.08645471 -0.16442832
0.106494345 -0.03309152 -0.054885443 -0.12666154 -0.11752194 -0.011537436 -0.0316148 -0.1065265
0.07586733 0.09933847 0.14398043 0.13136064 -0.17747408 -0.019266758 -0.052131005 0.07389945
0.13639593 0.049542315 -0.000264984 0.051836282 0.03289125 -0.17308725 -0.0973446 -0.14135198
0.06579757 0.07401522 0.19178025 0.13944545 0.13687725 0.05897847 -0.035344757 0.042653996
0.021490995 -0.058346342 0.05857976 -0.03712164 0.06806809 0.08398172 0.10018711 -0.02781796
-0.029680096 0.046902284 -0.048761677 0.025471719 -0.03440696 -0.0014778228 -0.0687021 -0.063013375
-0.11116001 -0.13002832 -0.24696292 -0.17246917 -0.0057168906 0.09552654 0.10816225 0.06244301
0.034227874 -0.034861922 0.016211787 0.0769692 0.044833057 0.033868313 -0.14157574 -0.019568538
0.0736168 0.053068373 0.13361824 0.131352 -0.14032876 -0.01149747 -0.053510193 0.076218426
0.054572098 0.16833526 0.14082003 -0.017984642 0.1584925 0.046645068 0.19493014 0.032810703
0.09298396 0.15602973 0.07491411 -0.02514862 0.04991967 -0.097771116 -0.048288606 -0.019737974
-0.05821208 0.017118001 -0.044567514 -0.05375116 -0.07990173 -0.023025708 -0.0054082535 -0.15639803
-0.10303146 -0.107176766 -0.08443196 0.16813253 -0.059386395 -0.025814174 -0.15981337 -0.0507011
-0.031655706 -0.14680363 0.16038477 -0.00097600464 -0.26313654 -0.2961706 -0.50889724 -0.3966853
0.2713887 0.31669748 0.22716503 0.32988983 -0.15481845 0.18186927 -0.30999148 -0.012064037
0.24091254 0.24807969 0.092881665 0.07009898 -0.017679695 0.15605113 0.10031606 0.16597594
0.0995454 0.044692192 -0.00847311 0.054812353 0.06774114 -0.045035552 -0.043217998 -0.08502597
-0.05069604 0.03157449 0.3816348 0.24669111 -0.09206364 -0.15778728 0.066027 0.14938639
-0.15072456 0.0030543585 -0.19781885 -0.260923 0.12913343 0.0140774725 0.08297216 0.027190994
0.14159855 -0.04378897 0.124231316 0.111550674 -0.06649292 -0.11781235 0.1266438 -0.11713238
-0.28914005 -0.19533923 -0.2720839 -0.2792774 -0.15606637 0.011376503 -0.12715565 -0.033334877
0.0076907487 0.037450973 -0.041796178 0.0034407978 -0.10581447 -0.09768926 0.037268057 -0.19708118
-0.09151798 -0.041620214 -0.031413753 -0.11571314 -0.062185213 0.18789695 0.044754453 -0.0743534
-0.09303092 -0.09822269 0.013557309 -0.09560397 0.22312701 0.0325119 -0.0012632742 -0.07411836
-0.092546396 -0.08112508 -0.09523836 -0.09783475 -0.09497291 -0.13993537 -0.006512403 -0.12697884
0.18885818 0.1970312 0.012119149 0.025793482 0.10891962 -0.072150774 0.27581623 -0.049515247
0.24835007 0.30895096 0.22377384 0.24908486 0.25079793 -0.086064704 -0.004035005 -0.05920714

unet.up1.bias f4 [16]
00000000: 82e8 763c 1a16 e3bd c124 393d 7c1e 103e
00000010: 05a4 1abd 2a65 843d a105 a13a 26a8 e73d
00000020: fcc0 85bc 14c6 13be d2b5 1ebd 5212 13be
00000030: 8f5e 903d 8679 a83d 48d5 c5bd 4d1a b0bd
0.015070083 -0.110882 0.045201067 0.14074129 -0.037754077 0.06464608 0.0012285003 0.11311369
-0.016327374 -0.1443103 -0.038747616 -0.14362457 0.070492856 0.08226304 -0.09659821 -0.085987665

unet.dec1.0.weight f4 [16, 32, 3, 3]
00000000: 942e 33bc 7761 6ebd 6937 963c 9902 8d3d
00000010: 8b3f 55bb b6c2 5fbc 8627 dbba 156d 21bd
00000020: 42e4 9bbc 9246 8b3c 6ff2 7cbc d1fe 95bc
00000030: affe a5bc 9944 5f3d 13f5 053d 38c2 8dbd
00000040: e97a 10bc 9bde 1abc fbc9 193d d080 20bd
00000050: ba39 1d3c 00ea 6c3c bb56 b33c df92 96b9
00000060: 3944 3dbd 3a98 26bd f047 5e3d 3463 9bbd
00000070: 8543 fbbc 8e8f cf3d 8a7f e4bd 0841 e5bb
00000080: 2cc0 bb3c c072 16bd b3a8 3cbd 6ad3 f5ba
00000090: 6d66 a43c c769 2dbc 7856 57bd ff01 b1bd
000000a0: 30e6 88bd 5fb0 94bd 26b3 1dbd 6f3a a2bd
000000b0: bbf0 aebd 9290 db3b ba70 1e3d 76b5 163d
000000c0: 00f1 68bd 0469 163d ec7f 33bc 91cc c8bd
000000d0: cb96 31bd f065 8bbc c0ac 6bbb 799f 7abd
000000e0: eb9a 17bd 36be 2abd 98ff 98bb 5541 143c
000000f0: d981 143d 140d 053e 7cc6 413d 2b07 4fbc
00000100: 631e f93c 5e92 2fbd 84ff 223d 9e5f 0bbc
00000110: 23b3 5ebd d022 75bd e999 643a 8875 033d
00000120: 84fe 8ebd f46e 24bd 3758 17bc f2ff 12bc
00000130: 4ba2 223d 9eb0 883d 27dc 443d 9175 483d
00000140: 9183 b83d 6cb5 29bc db6d 59bd 9fff 2bbc
00000150: 1179 d9bc 1d5d 92bb b3e1 173d 01d5 613c
00000160: 1b40 30bd 6eb3 293c 3f02 93bc 9fec cfbd
00000170: 1461 00bd 959c 1cbd b183 ffbd 3bba efbd
00000180: efaf 49bd 43dc cfbd 5ac9 08be 3773 70bd
00000190: 781f 973c c850 2d3c 3b9a 8bbd 72e5 0cbc
000001a0: b273 29bd 19fa b73b da22 34bd c9ce b43b
000001b0: 3d6c 13bc 7d8f 8dbc f05f bb3d 69ae cfbc
000001c0: 29a3 a53d a703 683d 34ca 7c3d 1580 00bb
000001d0: 4bf0 853d 41ee 66bc 876e 16bd 3715 c6bd
000001e0: f223 b43c eec6 f33b d11c 84bb 771f 4ebd
000001f0: 98cb 00bc 4fe4 e6bc 656d 263d 186f b8bc
00000200: 0a27 33bd dda9 28bd 56e1 a0bd 7e70 3fbd
00000210: b5c9 033c 6788 88bc 057a b4bd 4537 ffbc
00000220: d9bc 043c 6c6a 0abd 5473 1abd 3263 37bd
00000230: 7492 78bd 5911 eebc 8115 2cbd bbac 033d
00000240: b404 9f3d 7d0c 733d 74cb 523d 133a 903d
00000250: 4d9c 163d 9108 243d 24e4 973c a55d 913d
00000260: 6f8e 0f3a 7b57 c1bb 4e02 ab3c 0561 a43c
00000270: 46b1 30bd 10d5 97bc 2228 90bb 9da7 3e3d
00000280: ea42 293d dfcc 643c 7c09 833d 7e04 3e3d
00000290: 8cbc d23c a470 6f3d 43ff 903d 2d77 223b
000002a0: 9ef5 e23c 2697 d73c ac07 683d 0caa 843d
000002b0: 30c5 1c3d 7d69 673d ad76 febb 3304 efbc
000002c0: 0875 2f3d eec3 1dbc 4ab0 dd3c d384 193d
000002d0: 1a85 573c 2a40 433d ba44 3b3d fff9 843d
000002e0: 6954 79bb 7ec7 653d 2442 273d 4e27 7f3c
000002f0: dfa0 debc 2410 d23c 45c3 1c39 08c9 5bbc
00000300: a390 1d3d 2457 223d 0483 dbbc 09d6 c5b9
00000310: 1efa 0c3d a6eb bd3d 29a6 8b3d 6d08 653c
00000320: 6972 28bb ed94 ea3c c036 363d 735f b53c
00000330: f937 c13c bbe9 c93c 2e35 213d d2b8 6e39
00000340: ea28 073d a8be 193d b69f 4f3d 1fe7 2d3c
00000350: 96f7 47bc 08ee 0d3c a96b b4bc 6c61 37bd
00000360: 5d8d df3d 1472 bf3b a676 f13d a2eb 333d
00000370: 0e7e 563d 9f69 8f3d 8f66 643c a833 853d
00000380: e21c 5c3d 35d7 223c 70d8 853d fc1d 6d3d
00000390: 552e 36bc 8488 9a3d bf89 1a3d f152 9d3c
000003a0: 8e92 86bb 36af 4d3d 295f 7c3d 7b66 5d3c
000003b0: 1d2b 1e3a 2f00 553c 8eed 9ebc 374e 18bc
000003c0: 223b 6d3d 77f3 4a3d 82fb b33c e701 3ebc
000003d0: f7e2 bdbc 7e37 5ebd f77a 05bd 6589 35bd
000003e0: b45f 8fbd c742 01bd b1e9 b8bc 1505 d6bc
000003f0: dfcf 153d 5362 5d3d b37c 87bb eb96 093d
-0.010936398 -0.05819842 0.018336968 0.06885261 -0.0032539095 -0.013657263 -0.0016720153 -0.03941067
-0.01902974 0.017001424 -0.01543866 -0.018309982 -0.020263044 0.05450878 0.032704424 -0.0692181
-0.008818367 -0.009452487 0.03754614 -0.039185345 0.009596283 0.014460087 0.021891942 -0.00028719657
-0.04620764 -0.04067252 0.054267824 -0.07587281 -0.030671844 0.10134803 -0.11157139 -0.0069962777
0.022918783 -0.036730528 -0.04605932 -0.0018755023 0.020068372 -0.010584301 -0.052572697 -0.08642959
-0.0668453 -0.072602026 -0.038500927 -0.079213016 -0.085420094 0.0067005837 0.038681723 0.03679415
-0.05687046 0.036721244 -0.010955792 -0.09804643 -0.043356698 -0.017016381 -0.0035961121 -0.06118724
-0.037012976 -0.041685306 -0.004669141 0.0090487795 0.036256645 0.1299327 0.04730843 -0.012635986
0.030409997 -0.042864196 0.03979446 -0.008506684 -0.054370057 -0.059847653 0.0008720444 0.03209451
-0.06982139 -0.040144876 -0.009237341 -0.008972155 0.039705556 0.06674312 0.048061516 0.048940245
0.09009469 -0.010358196 -0.053083282 -0.010497957 -0.026546987 -0.0044666664 0.037080478 0.013783694
-0.043029886 0.010357721 -0.017945407 -0.10152554 -0.03134258 -0.038235266 -0.1247629 -0.117054425
-0.04924005 -0.101494335 -0.1335806 -0.058703627 0.018447623 0.010578342 -0.068165265 -0.008599626
-0.0413701 0.0056145308 -0.04397855 0.005517815 -0.008997974 -0.017280335 0.09149158 -0.02535172
0.08087761 0.05664411 0.061716273 -0.0019607593 0.06539973 -0.01409489 -0.0367265 -0.09672015
0.021989796 0.0074394858 -0.0040317555 -0.050322976 -0.0078610405 -0.028185038 0.04063167 -0.022513911
-0.043738402 -0.04117762 -0.078554794 -0.04673814 0.008043696 -0.016666604 -0.08812336 -0.031154284
0.008101665 -0.033792898 -0.03770764 -0.044772334 -0.060686544 -0.029061006 -0.042012695 0.03214715
0.07764569 0.05933808 0.05146356 0.07042327 0.036770154 0.040047232 0.018541403 0.070979394
0.00054762413 -0.005900321 0.020875122 0.020065794 -0.04313781 -0.018534213 -0.0043993155 0.046546567
0.04132358 0.013964861 0.063982934 0.046391003 0.025724672 0.05845703 0.07079937 0.0024790273
0.02770501 0.02631719 0.05664794 0.06477746 0.03827399 0.056497086 -0.007765612 -0.029176807
0.04283622 -0.009629233 0.0270616 0.037480187 0.0131542925 0.047668613 0.04571984 0.064929955
-0.0038044697 0.056098454 0.04083456 0.015573336 -0.027176319 0.025642462 0.00014950063 -0.013414629
0.038468014 0.039633885 -0.026795872 -0.00037734237 0.034418218 0.09273462 0.06818802 0.01397906
-0.002570296 0.028635466 0.044485807 0.02214024 0.02358626 0.024647584 0.039357357 0.000227663
0.032998003 0.03753534 0.05068942 0.010614186 -0.012205025 0.008662708 -0.022023993 -0.044770643
0.10915635 0.0058424566 0.117902085 0.04392589 0.05236631 0.070025675 0.0139404675 0.06503993
0.053738482 0.009939005 0.06535423 0.057889923 -0.011119445 0.075455695 0.03772902 0.019204589
-0.004106826 0.050215922 0.06161419 0.013513203 0.0006033646 0.013000532 -0.019400384 -0.009295992
0.05791772 0.049548592 0.021970514 -0.011597133 -0.023179514 -0.05425214 -0.03258797 -0.044320483
-0.07000676 -0.031557824 -0.02257237 -0.02612547 0.036575194 0.054048847 -0.0041347384 0.033591192

unet.dec1.0.bias f4 [16]
00000000: 496e 053d e68e a73c 2721 edbd e796 b13c
00000010: 4923 53be 8fae c0ba 7dc4 913c f1d7 babc
00000020: cf25 14bd 6d88 7bbb 717f acbd 2108 283d
00000030: c180 713d 44d8 363c 28b8 cf3c 2b35 213d
0.03257588 0.020453881 -0.11578589 0.021678401 -0.20618929 -0.001470046 0.017793888 -0.022808047
-0.03616887 -0.0038380877 -0.08422745 0.041023377 0.05896068 0.01115996 0.025356367 0.039357346

unet.final.weight f4 [1, 16, 1, 1]
00000000: d3a8 333e b7ce 21be 7485 08bf 12ee e43d
00000010: 8266 3bbf 0904 3b3d 4c98 133e 15f2 39be
00000020: 7bd5 3c3d 18b5 183d 5784 493e 8af1 3dbe
00000030: b145 163e 5157 0b3e 3a22 603d 5a08 263e
0.1754487 -0.15801512 -0.53328633 0.11178221 -0.7320329 0.045658145 0.14413565 -0.18158753
0.04610203 0.03728208 0.1967939 -0.18549171 0.14675023 0.13607527 0.05472014 0.16214123
